backend/best_model.pth (torch, 3517 bytes, 1 tensors)

fc.weight f4 [1, 384]
00000000: 2517 003d eeda 24bb f7a1 49bd 02e5 97bd
00000010: f4c3 d63c 20ec 66bd 8646 303d ec7e 9a3d
00000020: 2eea c73b 4473 90bc f827 4fbb 33aa 90bd
00000030: cbaa 133d f7d5 193d 277a de3c b01b 6d3d
00000040: 08a0 6abd 6445 8e3b 7efd bf3b 4541 0a3d
00000050: 26e9 79bb 9643 63bd 6f69 8dbd 66f8 453b
00000060: 75a8 5abd f359 22bc 7af2 a2bc 1c11 613b
00000070: e75f 753b 4b86 d33c 52a3 3c3d ecd0 2cbd
00000080: c9d7 8fbc d8fe 91bc 22a2 d43c fff2 60bb
00000090: 64de 8cbd 2bf6 053d a03a 13bb e033 b839
000000a0: 2d86 d33c 1806 73bc 50e8 95bd 261e 9cba
000000b0: a2f7 02bc 8bf6 8c3c a9c3 5dbc 4203 2a3d
000000c0: 80d1 dcb8 1b1e 7e3d 9468 433c 0d93 11bc
000000d0: b706 3bbd 043f 6dbd 5838 9abc b672 4cbd
000000e0: 527c 67bb 3d06 69bd 75b6 9fbc 7da2 9ebc
000000f0: efc4 353d aa24 e7bb fa43 613d 5fad 87bd
00000100: 09d3 08bd ff77 8ebd ca19 663d fa4e 763d
00000110: 5264 d6bc c6f6 1e3d 50f3 1e3d 18cc 8fba
00000120: 3e6c 40bd 02e2 5a3c fdfd fc3c 7462 083b
00000130: 80d4 503c 84d9 cd3b ad36 ac3c b854 913d
00000140: 6c4c 3cbc 82dd 34bd 0007 7dbc ac4b 20bd
00000150: 8759 76bc a86e 3f3b 5bb8 6b3d 5ddf 78bd
00000160: ae97 2fbc efe9 28bd a07c 0ebd 78e4 383d
00000170: 8438 e83c 7216 973c 9abf 183d 28e7 86bd
00000180: 3516 53bd 8574 8f3b 7b64 5abc d2ca 0c3d
00000190: 1d65 943b df63 1c3d 82ab 643c 3f2d 95bb
000001a0: 4102 103d 9e26 2fbc c886 a23c 22dd f53c
000001b0: eaed c33b 0035 53bc 90d1 79ba 0cf9 473c
000001c0: 88da 9a3d 2ee3 fb3b fe35 aa3c 2f34 70bd
000001d0: 804c 0dbd 8014 36bd b0d9 c53c 77b1 74bc
000001e0: 94a7 84bd 55ab 073d 3002 0c3d c7c1 413d
000001f0: f0d7 263d 5cbf d63c aef3 253d 0d0f 283d
00000200: 90c2 cabb 9f94 29bc 8982 aebb edf9 b3bc
00000210: 3ad7 87bd 6d5f 9f3d 84ae c8bc 7c2a ed3c
00000220: 1c95 423c a8a6 c9bc 182e 74ba 0e4d 5e3d
00000230: f63c a33c 38b2 093b 2163 e03b 0b00 bd3b
00000240: 1897 9b3c 403c 43ba d81a e33c c3ab d2bb
00000250: 6cfa 823d 3e55 d0bb 2705 333d c29a 19bd
00000260: 6fee 063c fadd 823b de58 dcbc d821 b23a
00000270: 6280 dc3c 6047 d13a 2100 033d 0710 82bd
00000280: cd3c 91bd 9916 ccbc 2f41 38bd bb12 97bd
00000290: 28e3 6d3d 209b d23c 5256 ae3c c630 923d
000002a0: da33 363c 8e7b 9cbc 5681 99bc db61 e63c
000002b0: c5a8 57bd 3c7e d83c 7a0e 333d 4830 e1bb
000002c0: db18 32bd f070 54bd 1d6f 2abd 225f 20bc
000002d0: f278 07bd f9be 8c3b 6ecd 6fbd 0c96 99bc
000002e0: 4849 94bc 8471 c1bc 8861 a73c 60b0 26bd
000002f0: 67c9 ac3c 917a 60bc 07ec aebc 65cc 93bc
00000300: 2b38 a6bb c4a9 73bd 0033 bc39 46ac 8cbc
00000310: a558 8dbd b196 953d 809c b63c db69 d1bc
00000320: be8b 97bb 13de bcbc 167a bd3c 6cc3 86bd
00000330: de3f 6b3d 7f37 65bd 68b3 963d f8d2 433c
00000340: 78ad 67bd 1f9d 253d b244 833c 3967 2abc
00000350: f589 083d eda6 8c3c b6de eabb f416 3dbb
00000360: 5f01 0ebd 2867 723b 1325 973c af6f 3fbd
00000370: 76b7 993c 4a2c 56bc 926e 70bd c9d1 eb3c
00000380: a290 b0bc 4a75 1ebd 3493 56bc da69 00bb
00000390: 3907 f83c e49a 8e3c 024f 09bd 1ab0 a73b
000003a0: 167a 2abc 0e90 2bbd b0c1 31bc 791e 9b3d
000003b0: eaf8 213d a8e1 b2ba 3280 2b3d 68df 71bd
000003c0: ea73 593d 916a 923d 5954 9abd 2c5c 97bc
000003d0: 9163 0fbd aa36 613d f9e7 e8bc 5501 19bc
000003e0: ef74 c1bb 7a32 9f3d 706c 27bd 04dd 683a
000003f0: fb9b 30bb 2f73 8fbc 15b2 43bd 10e8 6a3b
0.031272072 -0.0025154906 -0.049226727 -0.07416727 0.026216485 -0.05637753 0.043036006 0.0754374
0.0061009144 -0.017633088 -0.0031609517 -0.07063713 0.036051553 0.03755757 0.027157856 0.057887733
-0.057281524 0.004341768 0.005859076 0.033753652 -0.0038133352 -0.055484377 -0.069048755 0.0030207871
-0.05338331 -0.009909141 -0.019891012 0.0034342473 0.0037441195 0.025820872 0.046054192 -0.04219143
-0.017558949 -0.017821714 0.025956217 -0.0034324524 -0.06878355 0.032705467 -0.0022465363 0.00035133865
0.025820816 -0.014832996 -0.07319701 -0.001191084 -0.007993611 0.017207405 -0.013535419 0.041507013
-0.0001052944 0.06204043 0.011926789 -0.008885157 -0.0456607 -0.057921425 -0.018825695 -0.049914084
-0.0035321903 -0.056890715 -0.019496182 -0.01936459 0.044377264 -0.0070539312 0.054996468 -0.06624865
-0.033404384 -0.06956481 0.056176938 0.06013391 -0.026170883 0.03880956 0.03880626 -0.0010970859
-0.046978228 0.0133595485 0.03088283 0.0020810636 0.012745976 0.0062820334 0.021022165 0.07096237
-0.01149283 -0.04415656 -0.015443563 -0.039134666 -0.015035993 0.0029210243 0.057548862 -0.06075989
-0.010717316 -0.04123872 -0.03478682 0.04513976 0.028347261 0.01844332 0.0372921 -0.06587058
-0.05153485 0.004377904 -0.0133296205 0.034373112 0.004528655 0.038181182 0.013956906 -0.004552513
0.0351584 -0.010690359 0.01983966 0.03001267 0.0059792893 -0.012891054 -0.00095298234 0.0122053735
0.07561213 0.007686994 0.020777699 -0.058643516 -0.034496784 -0.044453144 0.024151653 -0.014934889
-0.064772755 0.03312238 0.034181774 0.04730394 0.040733278 0.026214294 0.040515594 0.04102998
-0.0061877444 -0.010350375 -0.0053256196 -0.02196976 -0.06632848 0.07781873 -0.024497278 0.028950922
0.011876371 -0.0246156 -0.000931473 0.054272704 0.01992653 0.0021010768 0.0068477546 0.0057678274
0.018992946 -0.00074476376 0.027722761 -0.006429167 0.063954204 -0.006357818 0.043706086 -0.037501104
0.008235558 0.003993747 -0.026897844 0.0013590408 0.026916686 0.0015966706 0.031982545 -0.06350713
-0.07091675 -0.02491312 -0.04498404 -0.073766194 0.05807796 0.025708735 0.021281395 0.07138209
0.011120761 -0.019101884 -0.01873843 0.028122833 -0.052651186 0.02642738 0.043714978 -0.0068722107
-0.043480735 -0.051865518 -0.041609872 -0.009788306 -0.033074327 0.0042952267 -0.058545522 -0.018748306
-0.01810135 -0.023613699 0.020432249 -0.040695548 0.02109213 -0.013701097 -0.021352781 -0.018041799
-0.0050726137 -0.059488073 0.00035896152 -0.01717199 -0.06901673 0.07304133 0.022291422 -0.025563171
-0.004624813 -0.023055112 0.023129504 -0.065802425 0.057433955 -0.05596113 0.07358438 0.011952154
-0.056561917 0.040433045 0.016023967 -0.010400587 0.03333469 0.01716944 -0.0071676625 -0.0028852792
-0.034669276 0.0036987755 0.018450296 -0.04673737 0.018764239 -0.013072083 -0.058699198 0.028786557
-0.021553341 -0.038686074 -0.013096619 -0.0019594342 0.030276882 0.017407842 -0.033522613 0.0051174285
-0.010405084 -0.041885428 -0.010849401 0.075741716 0.039544024 -0.0013647573 0.041870303 -0.059050947
0.05308906 0.07149232 -0.07535619 -0.018476568 -0.035007063 0.054983772 -0.028430926 -0.0093386965
-0.005903832 0.077732995 -0.0408749 0.00088830316 -0.002694844 -0.017510979 -0.047777254 0.0035843886
